…
I1202 00:10:40.371462 54842 solver.cpp:91] Creating training net from net file: train_net1.prototxt
I1202 00:10:40.375170 54842 net.cpp:322] The NetState phase (0) differed from the phase (1) specified by a rule in layer input
I1202 00:10:40.375314 54842 net.cpp:58] Initializing net from parameters: 
state {
  phase: TRAIN
}
layer {
  name: "input"
  type: "Data"
  top: "data"
  top: "label"
  include {
    phase: TRAIN
  }
  data_param {
    source: "/work/04035/dnelson8/maverick/vr_project/dataset/lmdb/1/train"
    batch_size: 100
    backend: LMDB
  }
}
layer {
  name: "conv1"
  type: "Convolution"
  bottom: "data"
  top: "conv1"
  convolution_param {
    num_output: 400
    weight_filler {
      type: "gaussian"
      std: 0.02
    }
    bias_filler {
      type: "gaussian"
      std: 0.001
    }
    kernel_h: 7
    kernel_w: 4096
    stride_h: 1
    stride_w: 1
  }
}
layer {
  name: "pool1"
  type: "Pooling"
  bottom: "conv1"
  top: "pool1"
  pooling_param {
    pool: MAX
    stride: 1
    kernel_h: 143
    kernel_w: 1
  }
}
layer {
  name: "fc1"
  type: "InnerProduct"
  bottom: "pool1"
  top: "fc1"
  inner_product_param {
    num_output: 101
    weight_filler {
      type: "gaussian"
      std: 0.01
    }
    bias_filler {
      type: "constant"
      value: 0
    }
  }
}
layer {
  name: "accuracy"
  type: "Accuracy"
  bottom: "fc1"
  bottom: "label"
  top: "accuracy"
}
layer {
  name: "softmax"
  type: "SoftmaxWithLoss"
  bottom: "fc1"
  bottom: "label"
  top: "softmax"
}
I1202 00:10:40.375541 54842 layer_factory.hpp:77] Creating layer input
I1202 00:10:40.376652 54842 net.cpp:100] Creating Layer input
I1202 00:10:40.376716 54842 net.cpp:408] input -> data
I1202 00:10:40.376830 54842 net.cpp:408] input -> label
I1202 00:10:40.510224 54906 db_lmdb.cpp:35] Opened lmdb /work/04035/dnelson8/maverick/vr_project/dataset/lmdb/1/train
I1202 00:10:40.938580 54842 data_layer.cpp:41] output data size: 100,1,150,4096
I1202 00:10:41.415177 54842 net.cpp:150] Setting up input
I1202 00:10:41.415282 54842 net.cpp:157] Top shape: 100 1 150 4096 (61440000)
I1202 00:10:41.415316 54842 net.cpp:157] Top shape: 100 (100)
I1202 00:10:41.415343 54842 net.cpp:165] Memory required for data: 245760400
I1202 00:10:41.415379 54842 layer_factory.hpp:77] Creating layer label_input_1_split
I1202 00:10:41.415424 54842 net.cpp:100] Creating Layer label_input_1_split
I1202 00:10:41.415457 54842 net.cpp:434] label_input_1_split <- label
I1202 00:10:41.415490 54842 net.cpp:408] label_input_1_split -> label_input_1_split_0
I1202 00:10:41.415536 54842 net.cpp:408] label_input_1_split -> label_input_1_split_1
I1202 00:10:41.415647 54842 net.cpp:150] Setting up label_input_1_split
I1202 00:10:41.415683 54842 net.cpp:157] Top shape: 100 (100)
I1202 00:10:41.415712 54842 net.cpp:157] Top shape: 100 (100)
I1202 00:10:41.415738 54842 net.cpp:165] Memory required for data: 245761200
I1202 00:10:41.415765 54842 layer_factory.hpp:77] Creating layer conv1
I1202 00:10:41.415835 54842 net.cpp:100] Creating Layer conv1
I1202 00:10:41.415868 54842 net.cpp:434] conv1 <- data
I1202 00:10:41.415899 54842 net.cpp:408] conv1 -> conv1
I1202 00:10:41.457587 54907 blocking_queue.cpp:50] Waiting for data
I1202 00:10:42.660967 54842 net.cpp:150] Setting up conv1
I1202 00:10:42.661048 54842 net.cpp:157] Top shape: 100 400 144 1 (5760000)
I1202 00:10:42.661077 54842 net.cpp:165] Memory required for data: 268801200
I1202 00:10:42.661141 54842 layer_factory.hpp:77] Creating layer pool1
I1202 00:10:42.661218 54842 net.cpp:100] Creating Layer pool1
I1202 00:10:42.661249 54842 net.cpp:434] pool1 <- conv1
I1202 00:10:42.661281 54842 net.cpp:408] pool1 -> pool1
I1202 00:10:42.661406 54842 net.cpp:150] Setting up pool1
I1202 00:10:42.661442 54842 net.cpp:157] Top shape: 100 400 2 1 (80000)
I1202 00:10:42.661490 54842 net.cpp:165] Memory required for data: 269121200
I1202 00:10:42.661519 54842 layer_factory.hpp:77] Creating layer fc1
I1202 00:10:42.661572 54842 net.cpp:100] Creating Layer fc1
I1202 00:10:42.661602 54842 net.cpp:434] fc1 <- pool1
I1202 00:10:42.661630 54842 net.cpp:408] fc1 -> fc1
I1202 00:10:42.665696 54842 net.cpp:150] Setting up fc1
I1202 00:10:42.665745 54842 net.cpp:157] Top shape: 100 101 (10100)
I1202 00:10:42.665771 54842 net.cpp:165] Memory required for data: 269161600
I1202 00:10:42.665802 54842 layer_factory.hpp:77] Creating layer fc1_fc1_0_split
I1202 00:10:42.665832 54842 net.cpp:100] Creating Layer fc1_fc1_0_split
I1202 00:10:42.665858 54842 net.cpp:434] fc1_fc1_0_split <- fc1
I1202 00:10:42.665884 54842 net.cpp:408] fc1_fc1_0_split -> fc1_fc1_0_split_0
I1202 00:10:42.665915 54842 net.cpp:408] fc1_fc1_0_split -> fc1_fc1_0_split_1
I1202 00:10:42.665978 54842 net.cpp:150] Setting up fc1_fc1_0_split
I1202 00:10:42.666013 54842 net.cpp:157] Top shape: 100 101 (10100)
I1202 00:10:42.666038 54842 net.cpp:157] Top shape: 100 101 (10100)
I1202 00:10:42.666060 54842 net.cpp:165] Memory required for data: 269242400
I1202 00:10:42.666085 54842 layer_factory.hpp:77] Creating layer accuracy
I1202 00:10:42.666131 54842 net.cpp:100] Creating Layer accuracy
I1202 00:10:42.666158 54842 net.cpp:434] accuracy <- fc1_fc1_0_split_0
I1202 00:10:42.666184 54842 net.cpp:434] accuracy <- label_input_1_split_0
I1202 00:10:42.666210 54842 net.cpp:408] accuracy -> accuracy
…
